NN_weights_biases.pth (torch, 10642 bytes, 10 tensors)

policy_assets.0.weight f4 [24, 4]
000000 0d 21 8a 3f 9b 5d 65 3e 23 1c 2c 3e f5 a7 4f 3e
       1.0791336 0.22398989 0.16807608 0.20278914
000010 0f 77 25 3f 22 8b 26 bd 81 2f 41 3d fa e0 cd be
       0.64634794 -0.04066003 0.047164444 -0.40210706
000020 ac d2 8c 3f d6 ba 9e bd e0 b7 56 bc 5d 3e b4 3e
       1.1001792 -0.0775048 -0.013105363 0.3520383
000030 25 f1 ee 3e e8 c2 8e bd 86 48 fe 3c b6 56 0b 3c
       0.46668354 -0.06970769 0.031040441 0.00850456
000040 a8 94 9e 3f 97 e5 53 bd 95 f4 96 bb 6b 31 96 3e
       1.2389116 -0.051732626 -0.004606793 0.29334578
000050 65 2c 45 bf 38 dc 2e bd 82 06 80 bd 28 02 a3 3d
       -0.77020866 -0.042690486 -0.06251241 0.07959396
000060 02 5a b9 bf 77 83 5e bc 55 6a d6 bc df 51 99 bf
       -1.4480593 -0.013581148 -0.02617375 -1.197811
000070 b9 e1 2a bf fe 62 23 bd 46 90 7d 3e 5b fa 0a bf
       -0.66750675 -0.03988933 0.24762067 -0.5428826
000080 cd b0 60 3f 8f 74 64 3e eb 21 df 3d 3f be 80 3d
       0.87769777 0.22310089 0.10895141 0.062862866
000090 90 b9 0d 3f d2 8a f7 3e fd 14 f2 3d 53 a8 62 3d
       0.5536127 0.483481 0.118204094 0.055336308
0000a0 70 ad a1 3f 41 16 9c 3e 64 88 44 bd ae 6a ce be
       1.2631054 0.30485728 -0.047981635 -0.40315765
0000b0 a0 c7 26 3f 52 f8 72 bd 9a 82 24 3d 05 9a eb 3e
       0.65148354 -0.059318848 0.040163614 0.46015945
0000c0 18 ac 45 bc 60 d8 72 bd 7a 73 b8 bb 5c 14 af be
       -0.012064956 -0.059288383 -0.0056290003 -0.3419522
0000d0 b5 16 33 bf 07 ee 14 3f 55 80 40 3d 08 20 f1 3d
       -0.69956523 0.581757 0.046997387 0.117736876
0000e0 1b 67 bd 3e a0 76 43 be b4 17 ba bd 82 dd ae 3d
       0.36992726 -0.1908822 -0.09086552 0.08538343
0000f0 0d 98 da be 46 37 55 be ce 4e 19 be 85 86 8b 3e
       -0.4269413 -0.20821866 -0.14971468 0.27251068
000100 fa 5e 5a bd c4 b3 38 be 27 48 8f 3d 08 48 b8 be
       -0.053313233 -0.18037325 0.06996184 -0.35992455
000110 35 b9 64 bf ed a7 96 bc 0f a6 fe 3c fe 14 90 be
       -0.89345104 -0.01839062 0.031085042 -0.28141016
000120 7a b7 57 3f 0e 79 1a be c7 87 85 bb e8 65 db be
       0.8426434 -0.15085241 -0.004075024 -0.42851186
000130 1f a9 48 bf 20 92 54 3e c1 ff 90 bb 91 47 a0 3d
       -0.7838306 0.20758867 -0.0044250195 0.0782615
000140 de cb 12 bf 74 aa 3a bf ee c6 c8 3d 4b 6d 4a bf
       -0.57342327 -0.7291634 0.09803568 -0.7907302
000150 fb db 70 be 8e eb f6 3e 82 5e b4 bd e5 3a d3 be
       -0.23521416 0.4822659 -0.088070884 -0.4125587
000160 f7 ae 4f bf 48 01 c1 3d 9e 8d 34 bd 5d 7a b7 3c
       -0.8112635 0.094240725 -0.04408037 0.022397215
000170 b5 7a 51 3f 27 9e a6 3e 3d 1c 93 bd e3 22 83 be
       0.8182786 0.32542536 -0.071831204 -0.25612554

policy_assets.0.bias f4 [24]
000000 db b6 9d bd ac 37 43 bf 8d ec b9 bf 14 c1 c8 bf
       -0.077008925 -0.76256824 -1.4525315 -1.5683923
000010 d4 7c d8 bf f3 8b e9 be e8 d2 ad 3f 88 0c c7 bd
       -1.6913095 -0.45614585 1.3579988 -0.09719187
000020 69 4b a5 be 2c 49 04 3e 0e 72 9e bf d0 a2 c5 bf
       -0.32284096 0.12918538 -1.2378557 -1.5440311
000030 b0 aa af bf f1 23 51 be ac 53 be 3f a0 0b 0e 3f
       -1.3723965 -0.20423867 1.4869285 0.5548649
000040 8c 7c 4f 3f 24 23 53 bf 4b 52 c1 3e 56 b4 50 bf
       0.8104942 -0.82475495 0.37758097 -0.8152517
000050 f8 8e 2a 3e b8 23 37 3e 56 4d e5 3d 8f db 0c 3e
       0.16656101 0.1788472 0.11196391 0.1375563

policy_assets.2.weight f4 [24, 24]
000000 78 1a 12 3e e2 6d 46 3e 09 72 8e 3e 6d 0f b0 3e
       0.1426791 0.19377854 0.27821377 0.3438677
000010 65 ab 37 3e 8d 17 26 3f 69 50 bc be c5 9a 95 be
       0.17936476 0.64879686 -0.36780098 -0.29219642
000020 3f a6 c0 3e df e7 b3 be 34 a3 e2 3e 1c 55 c3 3e
       0.37626836 -0.3513784 0.4426514 0.3815087
000030 65 fe d1 3e f1 5d ef 3d ec b6 bd be fe 6a e6 be
       0.410144 0.1168784 -0.3705362 -0.45003504
000040 bf 5d ef be b1 96 9a 3e e2 1a 0a bf e9 a8 23 3f
       -0.4675121 0.30193093 -0.5394727 0.6392961
000050 a6 45 56 be 2c 41 af be 5d 2c 83 bd 29 28 65 bf
       -0.20925006 -0.3422941 -0.06404946 -0.89514405
000060 b9 f9 43 3e 2d de 26 3e c1 7d 55 3e 03 2f fe 3d
       0.1913823 0.16295691 0.20848753 0.124113105
000070 13 b5 86 3e 27 36 27 bf af b3 4a bd a2 e4 9b be
       0.26310024 -0.65317005 -0.049487766 -0.3044787
000080 8a 73 1d 3e 9b af 05 bd 6e 29 9a 3e 1e 07 94 bd
       0.15376106 -0.032638174 0.30109733 -0.0722792
000090 7b 79 05 bd d5 d0 a2 be 1a 2d 78 3b e4 21 20 be
       -0.032586556 -0.3179995 0.003786868 -0.15637928
0000a0 e8 ab bd 3d 00 48 7c be fd 85 4e 3f d5 99 d2 be
       0.09261304 -0.24636841 0.806732 -0.4113299
0000b0 2e 52 c2 3d f7 3a 30 be 51 c3 88 be 4f 81 75 3f
       0.09488331 -0.17209993 -0.26711515 0.95900434
0000c0 dd e4 58 3d c7 e7 79 be c4 67 85 be 1b 60 af be
       0.052952636 -0.24404822 -0.2605573 -0.3425301
0000d0 59 3b 92 bd 6a 61 88 bf 72 67 46 3d a4 49 0d be
       -0.07140226 -1.0654728 0.048438497 -0.13797623
0000e0 13 e2 56 be 56 4d 26 3f 0c 94 8d 3c 7e 8b bf be
       -0.20984678 0.64961755 0.017282508 -0.37411112
0000f0 8a 0c c9 be 67 15 f5 bd f4 56 65 3e 03 f2 05 3e
       -0.3926738 -0.11966973 0.22396451 0.13080601
000100 cc 93 82 3e fd 62 6c bf 43 9f 41 3f a6 ff 8b bf
       0.25503385 -0.92338544 0.7563364 -1.0937393
000110 7d b5 1e be 8d 08 97 3d 6e f5 94 3c 52 6f 47 3f
       -0.1549892 0.07374678 0.018183436 0.77904236
000120 53 49 4b 3e 26 e8 1e 3e 20 d0 59 bd fe 2c 5f be
       0.1985219 0.15518245 -0.053177 -0.21794507
000130 24 72 5d bd e6 74 08 bf cb b9 ab 3d 94 be 55 bd
       -0.05406393 -0.5330337 0.083850466 -0.052183703
000140 c6 e2 27 be ac 3b 14 3e 45 ce 0d 3e 54 95 cd 3c
       -0.16395101 0.14475888 0.13848217 0.02509562
000150 93 c5 85 be ab 13 ab be e5 fe 52 bd 56 1b c1 bd
       -0.261273 -0.33413443 -0.051512618 -0.09429042
000160 5c 34 d2 bc e5 92 bc be 9a 18 41 3f 20 33 aa be
       -0.025659733 -0.36830822 0.75428164 -0.3324213
000170 9e 15 47 be ef 41 29 be 97 11 83 bd 37 24 39 3f
       -0.1944184 -0.16529058 -0.06399839 0.72320884
000180 63 9f 5b bc 2b a5 ac 3d 84 b8 83 3e 2d 65 87 3e
       -0.0134047 0.08429941 0.25726712 0.26444378
000190 36 d9 98 3d b7 85 a5 3f d4 33 8d be 24 35 02 3e
       0.07463305 1.2931432 -0.27578604 0.12715584
0001a0 f3 17 22 be c1 92 ec be 86 5d 9f 3e 30 dd 8c 3e
       -0.15829448 -0.46205714 0.3112604 0.27512503
0001b0 c2 39 a5 3e 5d 19 39 3e f5 bc c6 be 2d 02 6b bd
       0.32270628 0.18076082 -0.38816038 -0.05737512
0001c0 53 6b 6a bd 4c a2 e4 3f 5f 98 1e bf b0 74 b9 3f
       -0.05723126 1.7862029 -0.6195125 1.4488735
0001d0 a6 50 bd 39 9f ab 22 be f2 08 4d be 9f aa 83 bf
       0.00036108977 -0.15885781 -0.20022944 -1.0286444
0001e0 de 4d 0f 3e 7b 51 5d be 5a 21 44 be 4e fc d9 be
       0.13994548 -0.21613114 -0.19153348 -0.42575306
0001f0 f8 06 5b be e1 31 9f bf 6b 4e b4 3c d3 5a d6 bd
       -0.21389377 -1.2437097 0.022010049 -0.10466542
000200 82 36 ae bd 7a bb 47 3f a6 85 41 be 64 f3 a5 be
       -0.0850649 0.7802044 -0.18898639 -0.32412255
000210 ca 34 f6 be 68 fa 83 be 17 bd 01 3e 07 63 2d bc
       -0.4808715 -0.25776982 0.12669788 -0.010582692
000220 26 4e 7b 3e 58 22 be bf ec 7d 4b 3f d5 14 8f bf
       0.2454153 -1.4854231 0.79489017 -1.1178232
000230 a2 53 f2 3d b1 2a dd bd 5f c8 35 3e dd c2 5c 3f
       0.11832358 -0.10799158 0.17752217 0.8623484
000240 25 58 66 3e f8 b5 f5 3c 84 9e 59 be b1 2c a9 be
       0.22494562 0.029993996 -0.21251875 -0.3304191
000250 db 35 9d be 16 c7 31 bf d6 1a 94 3e 02 1e 0f bf
       -0.3070515 -0.69444406 0.28926724 -0.55905163
000260 85 dd d2 3d 11 a5 18 3f 12 96 a8 bd 30 5a 92 be
       0.10296158 0.5962687 -0.08231749 -0.28584433
000270 d6 94 0b bf 08 c3 44 be ee c0 e8 3e ad 15 3c bd
       -0.5452398 -0.19215024 0.45459694 -0.04591911
000280 27 d8 1b 3e d4 ab ac bf 73 03 16 3f d2 7c 7b bf
       0.15219174 -1.3489938 0.58599013 -0.98237336
000290 cc d8 94 bd a2 f4 9a bd f3 cf 9f be b3 24 01 3f
       -0.07267913 -0.07566191 -0.3121334 0.50446624
0002a0 71 82 1f 3e a1 60 bb 3d 50 22 01 3e 3d b0 63 3e
       0.15577103 0.0914929 0.12610745 0.22235198
0002b0 56 41 3e bc 00 99 43 3f 92 12 9c bd 52 4d 65 bd
       -0.011612257 0.76405334 -0.076207295 -0.05598194
0002c0 7d fa aa bd f4 18 0a bf 1e 0e 62 3d bb 8b d7 3d
       -0.08348558 -0.53944325 0.055189244 0.10524698
0002d0 e4 e5 ea 3e e5 76 da 3b a7 0d 78 be f4 56 96 be
       0.45878518 0.0066670054 -0.24223958 -0.29363215
0002e0 d7 13 9f be 53 9c 7c 3f d6 ee 38 bf ab 0c 79 3f
       -0.31069824 0.9867603 -0.72239435 0.97284955
0002f0 29 61 da 3c 8a f2 7d bd 3d 19 02 3e b7 67 42 bf
       0.026657658 -0.06199888 0.1270494 -0.75939506
000300 86 64 89 be 0d dc 29 3e c8 31 9d 3e ce fd 9a 3e
       -0.26834506 0.16587849 0.30702043 0.30271763
000310 23 49 92 3e 25 9e ab 3f 11 38 1b be 25 24 84 3e
       0.28571424 1.3407637 -0.15158106 0.25808826
000320 6f 27 1d be 1b 16 2b bf 6e c8 7e 3e e1 77 78 3e
       -0.15347074 -0.66830605 0.24881145 0.2426448
000330 f8 15 b8 3e 72 4f 31 3e 1f a7 9a be 78 ee b8 be
       0.3595426 0.17315462 -0.30205628 -0.36119437
000340 e4 e1 85 be 6c e4 cb 3f df ae 0c bf 01 18 b5 3f
       -0.26148903 1.5929084 -0.5495433 1.414795
000350 78 3c 96 bd 3c 16 0d be 10 7f 03 3e 6b a7 76 bf
       -0.07335752 -0.13778013 0.12841439 -0.9634921
000360 f6 81 3a bd c7 89 67 3e b3 b5 87 3d 91 bd 9d 3e
       -0.045534097 0.22611152 0.06626453 0.3080869
000370 81 f5 29 3e 10 5b 81 3f 22 f0 88 be 6a 58 d0 bc
       0.16597559 1.0105915 -0.26745707 -0.025432784
000380 16 cb eb bd a7 4c 37 bf cc ca ab 3e 7e c2 af 3d
       -0.11513345 -0.7160134 0.3355316 0.08582018
000390 95 33 90 3e 21 15 30 3e 5f 58 0f be 51 22 be bd
       0.28164354 0.1719556 -0.13998555 -0.09283889
0003a0 c9 55 37 3c ae 2b b9 3f fd 1c 6b bf 31 c2 a4 3f
       0.011189886 1.4466455 -0.9184111 1.2871763
0003b0 dd ae 98 3d b0 fd 3f bd d2 a1 27 be c3 01 2d bf
       0.074552275 -0.046872795 -0.16370323 -0.67580813
0003c0 dc f3 e0 3b 44 cc 55 be 75 eb a0 be e7 73 8b be
       0.006865008 -0.20878702 -0.3142964 -0.27236864
0003d0 07 74 86 bd a1 5e 77 bf 1b d9 33 3e 40 16 92 be
       -0.06565099 -0.9662877 0.17563288 -0.285326
0003e0 32 8d 4a be 61 7a e1 3e bf 2d af 3d f2 2e 15 bd
       -0.19780424 0.4403868 0.08553647 -0.036421724
0003f0 54 0f 08 bf 30 ec 49 be 23 ae 9d 3c 4e 18 60 3d
       -0.5314839 -0.19719005 0.019248074 0.05471068

policy_assets.2.bias f4 [24]
000000 cf a6 1c be e4 77 dd 3d 72 fd 97 3d bb a0 84 3e
       -0.15298007 0.10813883 0.07421388 0.25903878
000010 b8 f2 b9 bd ad 03 ad 3d 24 c3 96 3e 33 d0 ae be
       -0.09079498 0.08447967 0.29445755 -0.34143218
000020 85 98 cf bd ac 15 b4 be 4d 6b 7f 3e 16 da 41 be
       -0.10136513 -0.35172784 0.24943276 -0.1893085
000030 fa c2 cb be 0c 1d 8d 3e 81 86 1f 3e 86 15 0b 3e
       -0.39797193 0.27561224 0.15578653 0.1358243
000040 15 81 a8 bd 96 e6 b1 be cd 84 b9 3e ee a6 a1 3e
       -0.082277454 -0.34746236 0.3623413 0.3157267
000050 4c 2b 8d 3e 21 a0 66 3d 8d e0 4b 3e 50 27 4d 3d
       0.27572095 0.056305055 0.19909878 0.05008632

policy_assets.4.weight f4 [1, 24]
000000 e5 13 47 bf 20 30 98 3f 6c 4a 4d 3f 3d 16 8c 3f
       -0.7776473 1.1889687 0.80191684 1.0944287
000010 d4 d3 4e bf 6d 6d 4b 3f e1 77 94 3f 55 6b 67 bf
       -0.80791974 0.79463845 1.1599084 -0.9039815
000020 57 a2 67 bf a0 2f 58 bf e6 b6 61 3f 45 96 64 bf
       -0.90482086 -0.8444767 0.88169706 -0.89291793
000030 f8 bb 69 bf aa 1d 5e 3f 1c d8 59 3f 31 97 84 3f
       -0.9130244 0.86764014 0.8509538 1.035864
000040 bb fe 5e bf 3d c4 6d bf 59 60 54 3f 53 01 61 3f
       -0.8710744 -0.9287756 0.82959515 0.87892646
000050 21 18 67 3f 14 3a 4c 3f 7a 83 46 3f dc e4 8a 3f
       0.9027119 0.7977612 0.7754437 1.0851092

policy_value.0.weight f4 [24, 4]
000000 bf aa 8f be f5 64 c8 3e 9b d9 23 3b 2d 0c e0 be
       -0.28059956 0.39139524 0.002500153 -0.4375929
000010 40 32 f5 3e 54 41 81 3e 2b 37 68 bb e3 e2 32 bc
       0.478899 0.25245154 -0.0035433273 -0.010918352
000020 c9 3e c9 bd e5 a6 e2 3e 80 4d 5b be 9a 95 e7 bd
       -0.098264284 0.44267955 -0.21416283 -0.11307831
000030 99 b5 83 3e be b6 b8 be f4 c0 1a 3f fd 5d 0b bf
       0.25724486 -0.3607692 0.60450673 -0.5444029
000040 ee ae 91 be fe 97 6c bd 62 aa 0d bb d9 a7 58 bf
       -0.28453773 -0.05776214 -0.0021616449 -0.84631115
000050 11 db 26 3f 7f e2 66 be 50 b9 28 bf 35 80 bb 3d
       0.6517802 -0.22547339 -0.65907764 0.09155313
000060 d8 0b d5 3e 1a fa 5c 3e 72 8e 1b 3e ea 71 b1 be
       0.416106 0.21579781 0.15191057 -0.34657222
000070 5f 61 a6 be 42 1b 94 bc 32 b6 8b 3d eb 70 ad bd
       -0.32496163 -0.018079404 0.068218604 -0.08468803
000080 e5 17 2e 3e f4 84 50 3d 79 2f 21 3d 0b b9 02 3e
       0.17001303 0.050908044 0.039351914 0.12765901
000090 51 93 f7 bd 52 1a ee 3d 1c 3a d3 3e 7c 1d c3 bd
       -0.12088645 0.11626114 0.4125527 -0.09527108
0000a0 d1 6a 43 bf dd 53 fd 3d ff fa ba 3d 69 2a 2e 3c
       -0.76334864 0.12369511 0.09129905 0.010630229
0000b0 37 b8 be 3e 5e 9e 86 be d2 5a d0 3e b8 88 72 3e
       0.3724992 -0.262927 0.4069429 0.23684967
0000c0 92 ab c4 be 85 ff 69 3e 22 e8 b7 be 34 0d bb be
       -0.38412148 0.22851379 -0.3591929 -0.3653351
0000d0 29 2f 5b be 62 5b b1 be 59 ef 40 3e e0 50 9e bd
       -0.21404709 -0.34640032 0.18841304 -0.077302694
0000e0 17 c6 61 3e a9 cb f9 be 7f 18 82 3e 26 f6 af be
       0.22048222 -0.48788193 0.25409314 -0.34367484
0000f0 67 10 19 bf ca 8d 5b 3e 4f aa 91 3e 78 54 22 3e
       -0.59790653 0.21440807 0.28450248 0.15852535
000100 0b 7e aa be e1 2d 52 be 81 7f 07 3e 07 79 2b 3e
       -0.33299288 -0.20525314 0.13232233 0.16745387
000110 ee f1 1e 3f b2 cc d2 3d 69 c6 dd bd 16 b6 97 3e
       0.62087905 0.10292949 -0.10828859 0.29631108
000120 a4 fb bb 3e 97 61 6c bd d8 44 fd 3d 74 fb 53 3e
       0.36715424 -0.057710256 0.123666465 0.2070139
000130 63 33 02 3f 48 d8 a9 be 56 c9 71 be cb aa b8 bd
       0.5085966 -0.33172822 -0.2361196 -0.09016951
000140 3b 51 2d bc f9 c7 58 3e fb 7e 1e be 6b c1 c3 3d
       -0.010578449 0.21170034 -0.15478127 0.09558376
000150 f8 64 1c bf 6b 18 fa 3e 3b 33 8f 3e 03 90 c3 bd
       -0.61091566 0.48846754 0.27968773 -0.095489524
000160 4a 14 a3 be 67 1b 9f be 9e 17 45 bd 7f 59 e1 be
       -0.31851417 -0.31075594 -0.048118226 -0.44013593
000170 c5 63 52 bd ec da 06 3e 43 88 1d be ad bc 87 3d
       -0.05136468 0.1316945 -0.15384011 0.06627784

policy_value.0.bias f4 [24]
000000 e5 e8 d6 be 98 06 3b be e4 ec e8 be 5b 7f 3f be
       -0.4197456 -0.18264234 -0.45493233 -0.18700926
000010 8c 82 ea bd 12 b4 89 be a4 8b 27 bd 09 65 b2 3e
       -0.11450681 -0.26895195 -0.040904656 0.3484271
000020 4b 04 f8 3e 5f be be 3d e6 e8 d5 3c 55 ea b8 be
       0.48440775 0.09313654 0.026112031 -0.3611628
000030 f7 b0 41 3e 1a b3 7d be 2d 0e 6a 3e 0e 8b ca 3e
       0.18915163 -0.24775353 0.2285697 0.39559215
000040 82 1a 37 3e ec 76 53 3f 0a fc 12 3f 53 53 a9 3d
       0.17881206 0.82603335 0.5741583 0.08267846
000050 68 99 e8 be 23 d6 03 3f 67 43 13 be c1 9e a6 be
       -0.4542954 0.5149862 -0.1438118 -0.32542995

policy_value.2.weight f4 [24, 24]
000000 37 57 31 3e cb 7a 42 3e 1c de 6c 3e c4 9c f5 bc
       0.17318426 0.18992154 0.23131603 -0.029981978
000010 eb 9f db bd 9d fe 03 bd 6d 7b 83 3e b1 3d 3e 3d
       -0.10723861 -0.03222524 0.25680104 0.046445552
000020 2f b0 be bd 2b fd 4c bd 70 da b7 bd 37 eb e8 3d
       -0.09310948 -0.050046127 -0.089772105 0.11372989
000030 6b 81 74 3c 90 7c a3 3e 4f 7b b0 bd 38 71 bf 3d
       0.014923434 0.3193097 -0.08617269 0.09347767
000040 36 3e 5d 3e a8 d7 c0 3c da a9 a5 3d bd 83 e8 3c
       0.21605763 0.023540333 0.08089037 0.02838313
000050 c2 d8 2e 3e d6 f1 1e 3e 86 a3 c7 bd ec c1 37 be
       0.17074874 0.1552194 -0.097479865 -0.17945069
000060 84 6f dc 3c 2e e9 c5 bb d8 40 2e be f2 41 93 3b
       0.026908644 -0.00603976 -0.17016923 0.0044939453
000070 46 d1 20 bd f4 b6 15 3e 36 fe 84 3d 59 b3 8f bd
       -0.03926208 0.14620572 0.064937994 -0.0701663
000080 e0 b1 d0 3c bb 9d 3e bd e5 1a 51 bd c9 c8 48 3e
       0.025475442 -0.046537142 -0.05105104 0.19607843
000090 d7 6b d5 3d c6 7a f8 bd 24 ba 93 3c 0f 90 38 3d
       0.104209594 -0.12132792 0.018033095 0.04505926
0000a0 6e fc b9 bd 8e 82 3a be 87 0c de 3c 46 b8 c0 3d
       -0.0908135 -0.18213865 0.027105583 0.09410147
0000b0 1e 7d b3 bd be 36 23 be c8 92 3d 3e 19 0a 36 3e
       -0.087640986 -0.15938851 0.18513024 0.1777729
0000c0 a4 08 dc 3d 0d e3 2f 3e 39 3b 8a bd ce dd 83 bd
       0.107438356 0.17176457 -0.06749577 -0.0643879
0000d0 d7 ed 1f 3e a2 11 0f bd d3 3d d8 bd 79 c6 2a be
       0.15618072 -0.034928925 -0.10558667 -0.16677274
0000e0 e6 91 7d bd 7b 38 f9 bd ea 52 f4 bb f9 33 3f 3e
       -0.061906718 -0.12168976 -0.007456173 0.1867217
0000f0 11 05 62 bd fd da 52 3e bc 43 fc 3d 3f 36 cd bd
       -0.055180613 0.2059135 0.12317607 -0.10020112
000100 92 c5 43 3e b3 41 28 3e d9 ae 30 be 1c 36 86 be
       0.19118336 0.16431312 -0.17254199 -0.26213157
000110 30 d2 0f be cb 96 60 bd 0a df 6f bd 2c 87 d2 bd
       -0.14045024 -0.054831307 -0.058562316 -0.10279688
000120 05 8b 94 3d 9e f1 11 3e 9d 4f b9 bd c9 ff fc bd
       0.07253078 0.14252326 -0.09048388 -0.12353475
000130 0a 4d be bd 82 74 92 bd fc fe 40 3d 13 50 26 be
       -0.09292038 -0.07151128 0.047118172 -0.16241483
000140 17 05 84 bc 57 07 e0 bd ca 68 2b be 59 4d 44 be
       -0.016115708 -0.109389 -0.16739193 -0.19170131
000150 37 82 cc 3d 6e dd 0b 3d 9c 72 86 bc e5 7a f2 3d
       0.09985774 0.03414672 -0.016412072 0.118398465
000160 6e df 2a 3e 95 1a c0 3d d6 d3 36 be eb 03 43 be
       0.16686794 0.0938007 -0.17854246 -0.19044463
000170 f3 3f 0b be 57 5f 4c 3e d9 72 d0 3b ff a9 60 be
       -0.13598613 0.19958244 0.006361347 -0.21939848
000180 0d 65 a6 bc 9d b2 21 be 5a 25 bc bc c4 5d 87 bd
       -0.020311857 -0.15790792 -0.02296703 -0.06609681
000190 8e 1e 00 3e 86 4f 8c 3d f3 ad 09 bc c9 9f 11 3d
       0.12511656 0.068511054 -0.008403289 0.035552774
0001a0 e1 ac 75 3d c1 ef 83 3d 4d 75 cb 3d 94 3c 6e 3d
       0.059979323 0.06442214 0.09934483 0.05816324
0001b0 ae bc a2 bd e5 7a 49 be bd 34 a8 bd 9e cb ec bc
       -0.07946144 -0.19675787 -0.08213184 -0.028905686
0001c0 f7 4f 92 bd e4 a1 59 3e 0b a8 8a 3e 09 b9 34 3e
       -0.07144158 0.21253163 0.27081332 0.1764871
0001d0 91 73 20 bd b9 45 d0 3d 43 a7 01 3e 11 e3 45 be
       -0.039172713 0.101695485 0.12661462 -0.193249
0001e0 0d eb 97 bc 57 9e 17 be bf 0b 25 bd 3f 9a 0b 3e
       -0.018544698 -0.14806496 -0.040294405 0.13633059
0001f0 d0 b6 3f bd ca ce f4 bc ea 81 fb 3d 8b c8 91 bc
       -0.046805203 -0.029883761 0.122806385 -0.017795822
000200 6b b5 45 bd 17 ac 34 3e 0e 1e 6c bd b2 d6 e2 bc
       -0.048268717 0.17643772 -0.05764585 -0.027690265
000210 ae 2e f5 3c f8 d3 a1 be fd 7f 11 be 36 a6 ed 3d
       0.029929485 -0.31607032 -0.1420898 0.11603968
000220 16 d5 84 be 67 7e cf bd c2 8b a1 3d c2 c6 b8 bb
       -0.25943822 -0.10131531 0.07887985 -0.005638928
000230 02 65 9d bd f4 f3 53 bd e9 ad c7 bd ae 03 ad bd
       -0.07685281 -0.051746324 -0.097499676 -0.084479675
000240 50 b4 1e be 6a 76 34 3d d8 4f f7 be 89 74 82 bd
       -0.15498471 0.04405824 -0.48303103 -0.063698836
000250 e7 ec 65 bd 00 b7 cf 3c 19 bf 44 3e da 06 f5 bd
       -0.05613413 0.025355816 0.19213523 -0.119641975
000260 5f 45 59 3e c8 5b dc 3d 71 24 2e 3e 5a 40 48 be
       0.21217869 0.107596934 0.17006089 -0.19555798
000270 42 d5 91 bd 2e ef dc be 7a e1 7d bd 44 0a 41 3e
       -0.07120754 -0.4315123 -0.06198261 0.18851572
000280 f5 d1 73 be f8 09 26 3e b9 15 73 3d 31 2e 1d 3e
       -0.23810561 0.1621474 0.05934689 0.15349652
000290 f4 18 0e be f5 52 0a 3e b8 c5 54 be f5 85 f9 bd
       -0.13876706 0.13508208 -0.20778549 -0.121837534
0002a0 83 8e 03 be b2 92 39 3b 43 df b2 3e 63 db 6c 3d
       -0.12847333 0.0028316197 0.3493596 0.05782641
0002b0 13 b3 e5 bc ac 18 9f bb 9b 41 8d bd cd 13 30 be
       -0.02803949 -0.004855236 -0.06897279 -0.17195053
0002c0 c9 38 49 3d af e2 d5 3c fe 87 16 3d 67 3a cb bd
       0.04912642 0.026109068 0.036750786 -0.09923249
0002d0 54 57 a1 bd 45 a4 93 3e b0 92 6f 3d 3f 2d 16 3d
       -0.07877985 0.28836265 0.0584895 0.036664244
0002e0 e0 ac aa 3d 53 ed 3a 3e 1a 7a f2 bd 69 f0 75 be
       0.083337545 0.18254595 -0.11839695 -0.2401749
0002f0 64 f1 d4 bd 7a 76 4f 3e 30 31 97 bc 0e 04 e2 bc
       -0.10397604 0.20260039 -0.018456072 -0.027589824
000300 24 76 d7 bd 41 13 ba bd be 41 a0 be 90 fa 18 be
       -0.105205804 -0.09085704 -0.31300157 -0.14939332
000310 57 24 2b 3e 0a 59 41 3e 26 86 13 3e 63 eb 04 be
       0.16713081 0.18881622 0.14406642 -0.12980418
000320 3d 97 6d 3e 5a 45 15 be ba 6b 1c 3e 95 20 10 3e
       0.23202224 -0.14577237 0.1527547 0.14074929
000330 f7 da 2d 3e 2b 35 41 be 26 3c 11 3e 33 6c 84 3b
       0.1697806 -0.18867938 0.14183101 0.0040412187
000340 1f d8 86 bd 49 0e 42 bd a2 1d e8 3d 65 27 4f 3d
       -0.065841906 -0.047376905 0.11333777 0.05057468
000350 e2 58 4d 3c 17 de 31 be fb ec 0b bd eb e4 bc bd
       0.012533398 -0.17369877 -0.03416155 -0.0922335
000360 e9 41 be bd a8 b8 80 bd 3d 10 1c bd f1 48 31 bd
       -0.09289915 -0.062852204 -0.038101424 -0.043282453
000370 fe 91 c0 3d 25 dd 37 3e e3 52 3d 3e a9 21 0e be
       0.09402846 0.17955454 0.1848865 -0.13880028
000380 8e be a6 be a2 9b 5c 3d 3d 85 4f 3d ea 82 1d be
       -0.32567257 0.05385936 0.050664175 -0.15381971
000390 23 e9 37 3d c6 62 fa 3e f4 d4 bf bd 70 06 d8 bd
       0.04490007 0.48903483 -0.093667895 -0.10548103
0003a0 1c f3 8d 3e 25 4d ab 3d 2d 7b e0 3d 95 0f 72 be
       0.2772454 0.083643235 0.10960994 -0.23638757
0003b0 2d c5 fe 3d d5 23 30 be 02 1e 39 3e d3 ae 9a bd
       0.12439952 -0.17201169 0.18077853 -0.07552876
0003c0 57 ff f8 3d 31 24 f8 3c 60 65 82 3d e4 0f 88 bb
       0.12158077 0.030290695 0.06366992 -0.004152285
0003d0 6b a1 1f 3c 3b 4e c0 bd 1b fe 62 be a7 ac 94 bd
       0.009743075 -0.09389921 -0.22167246 -0.07259493
0003e0 f3 79 8a 3e 6e 75 35 bd 7e 73 bb 3d f4 eb 94 bd
       0.27046165 -0.044301443 0.09152888 -0.07271567
0003f0 b0 65 1e 3e 1d ec 90 bd e5 a2 ac 3d 8c b0 ba bd
       0.15468478 -0.07076285 0.08429507 -0.09115705

policy_value.2.bias f4 [24]
000000 6b 42 b2 bc de c0 1e bd 06 60 32 be a7 ee 28 be
       -0.021760186 -0.03875815 -0.17419443 -0.16497289
000010 6b 52 05 be c1 96 dd 3d ff 8f 05 3e 41 cd 3c be
       -0.13019721 0.1081977 0.13043211 -0.18437673
000020 2d 45 7d bd 43 33 c4 bc 2c 68 2b be 9f 53 b2 3d
       -0.06183355 -0.023950225 -0.16738957 0.08707356
000030 08 90 60 3e 0c b8 cb 3d d0 6e 1e be cf 05 31 3d
       0.21929944 0.099472135 -0.15471959 0.04321843
000040 1f 28 d9 3d 33 db 17 3e ce 1f ea bd 8b 3f 48 be
       0.106033556 0.14829712 -0.114318475 -0.1955549
000050 04 a8 8b 3d fe 11 00 3d 8d 0f 5b bd 57 bf 17 be
       0.06819156 0.03126716 -0.053481627 -0.14819084

policy_value.4.weight f4 [1, 24]
000000 3a 4a c5 bd 09 90 db 3d f2 f5 3e bd d2 ae 68 be
       -0.09633298 0.10720832 -0.04662127 -0.22722939
000010 e9 aa 55 3e b7 2b 43 3d 50 02 d0 3d c3 d3 32 3b
       0.20865978 0.04764911 0.10156691 0.0027286864
000020 fe 42 b0 3e 40 18 73 be 49 6f 16 3d e4 ae 07 be
       0.3442611 -0.2373972 0.036727224 -0.13250309
000030 e9 ba e2 3d 0e 9c 92 bc 93 c1 32 bd b7 31 a7 3d
       0.110708065 -0.017896678 -0.043641638 0.08163779
000040 91 72 36 3e 0a 23 10 be 36 ba 0d be fb 4e 40 bd
       0.17817141 -0.14075866 -0.13840565 -0.04695032
000050 6f 54 6c be 8a 7c a5 3d e5 c1 50 3e 06 8e 2a be
       -0.23079084 0.080803946 0.20386465 -0.1665574
